…
	Batch size per gpu: 1
	World size (gpu number): 1
	Require iter number per epoch: 2560000
	Total epochs: 1; iters: 200000.
2024-12-17 02:47:21,538 INFO: Generate data info for VideoTestDataset - REDS4
2024-12-17 02:47:21,539 INFO: Dataset [Video3DTestDataset] - REDS4 is built.
2024-12-17 02:47:21,539 INFO: Number of val images/folders in REDS4: 0
2024-12-17 02:47:21,570 INFO: Network [DoubleRCAN3D] is created.
2024-12-17 02:47:21,726 INFO: Network: DoubleRCAN3D, with parameters: 1,170,754
2024-12-17 02:47:21,727 INFO: DoubleRCAN3D(
  (cleanBlock): RCAN3D(
    (conv1): ConvBlock3D(
      (conv): Conv3d(1, 32, kernel_size=(3, 3, 3), stride=(1, 1, 1), padding=(1, 1, 1))
    )
    (residual_groups): Sequential(
      (0): ResidualGroup3D(
        (blocks): Sequential(
          (0): ResidualChannelAttentionBlock3D(
            (conv1): ConvBlock3D(
              (conv): Conv3d(32, 32, kernel_size=(3, 3, 3), stride=(1, 1, 1), padding=(1, 1, 1))
            )
            (conv2): ConvBlock3D(
              (conv): Conv3d(32, 32, kernel_size=(3, 3, 3), stride=(1, 1, 1), padding=(1, 1, 1))
            )
            (channel_attention): ChannelAttentionBlock3D(
              (global_avg_pool): GlobalAveragePooling3D()
              (fc1): ConvBlock3D(
                (conv): Conv3d(32, 4, kernel_size=(1, 1, 1), stride=(1, 1, 1))
              )
              (fc2): ConvBlock3D(
                (conv): Conv3d(4, 32, kernel_size=(1, 1, 1), stride=(1, 1, 1))
              )
            )
          )
          (1): ResidualChannelAttentionBlock3D(
            (conv1): ConvBlock3D(
              (conv): Conv3d(32, 32, kernel_size=(3, 3, 3), stride=(1, 1, 1), padding=(1, 1, 1))
            )
            (conv2): ConvBlock3D(
              (conv): Conv3d(32, 32, kernel_size=(3, 3, 3), stride=(1, 1, 1), padding=(1, 1, 1))
            )
            (channel_attention): ChannelAttentionBlock3D(
              (global_avg_pool): GlobalAveragePooling3D()
              (fc1): ConvBlock3D(
                (conv): Conv3d(32, 4, kernel_size=(1, 1, 1), stride=(1, 1, 1))
              )
              (fc2): ConvBlock3D(
                (conv): Conv3d(4, 32, kernel_size=(1, 1, 1), stride=(1, 1, 1))
              )
            )
          )
        )
        (conv): ConvBlock3D(
          (conv): Conv3d(32, 32, kernel_size=(3, 3, 3), stride=(1, 1, 1), padding=(1, 1, 1))
        )
      )
      (1): ResidualGroup3D(
        (blocks): Sequential(
          (0): ResidualChannelAttentionBlock3D(
            (conv1): ConvBlock3D(
              (conv): Conv3d(32, 32, kernel_size=(3, 3, 3), stride=(1, 1, 1), padding=(1, 1, 1))
            )
            (conv2): ConvBlock3D(
              (conv): Conv3d(32, 32, kernel_size=(3, 3, 3), stride=(1, 1, 1), padding=(1, 1, 1))
            )
            (channel_attention): ChannelAttentionBlock3D(
              (global_avg_pool): GlobalAveragePooling3D()
              (fc1): ConvBlock3D(
                (conv): Conv3d(32, 4, kernel_size=(1, 1, 1), stride=(1, 1, 1))
              )
              (fc2): ConvBlock3D(
                (conv): Conv3d(4, 32, kernel_size=(1, 1, 1), stride=(1, 1, 1))
              )
            )
          )
          (1): ResidualChannelAttentionBlock3D(
            (conv1): ConvBlock3D(
              (conv): Conv3d(32, 32, kernel_size=(3, 3, 3), stride=(1, 1, 1), padding=(1, 1, 1))
            )
            (conv2): ConvBlock3D(
              (conv): Conv3d(32, 32, kernel_size=(3, 3, 3), stride=(1, 1, 1), padding=(1, 1, 1))
            )
            (channel_attention): ChannelAttentionBlock3D(
              (global_avg_pool): GlobalAveragePooling3D()
              (fc1): ConvBlock3D(
                (conv): Conv3d(32, 4, kernel_size=(1, 1, 1), stride=(1, 1, 1))
              )
              (fc2): ConvBlock3D(
                (conv): Conv3d(4, 32, kernel_size=(1, 1, 1), stride=(1, 1, 1))
              )
            )
          )
        )
        (conv): ConvBlock3D(
          (conv): Conv3d(32, 32, kernel_size=(3, 3, 3), stride=(1, 1, 1), padding=(1, 1, 1))
        )
      )
      (2): ResidualGroup3D(
        (blocks): Sequential(
          (0): ResidualChannelAttentionBlock3D(
            (conv1): ConvBlock3D(
              (conv): Conv3d(32, 32, kernel_size=(3, 3, 3), stride=(1, 1, 1), padding=(1, 1, 1))
            )
            (conv2): ConvBlock3D(
              (conv): Conv3d(32, 32, kernel_size=(3, 3, 3), stride=(1, 1, 1), padding=(1, 1, 1))
            )
            (channel_attention): ChannelAttentionBlock3D(
              (global_avg_pool): GlobalAveragePooling3D()
              (fc1): ConvBlock3D(
                (conv): Conv3d(32, 4, kernel_size=(1, 1, 1), stride=(1, 1, 1))
              )
              (fc2): ConvBlock3D(
                (conv): Conv3d(4, 32, kernel_size=(1, 1, 1), stride=(1, 1, 1))
              )
            )
          )
          (1): ResidualChannelAttentionBlock3D(
            (conv1): ConvBlock3D(
              (conv): Conv3d(32, 32, kernel_size=(3, 3, 3), stride=(1, 1, 1), padding=(1, 1, 1))
            )
            (conv2): ConvBlock3D(
              (conv): Conv3d(32, 32, kernel_size=(3, 3, 3), stride=(1, 1, 1), padding=(1, 1, 1))
            )
            (channel_attention): ChannelAttentionBlock3D(
              (global_avg_pool): GlobalAveragePooling3D()
              (fc1): ConvBlock3D(
                (conv): Conv3d(32, 4, kernel_size=(1, 1, 1), stride=(1, 1, 1))
              )
              (fc2): ConvBlock3D(
                (conv): Conv3d(4, 32, kernel_size=(1, 1, 1), stride=(1, 1, 1))
              )
            )
          )
        )
        (conv): ConvBlock3D(
          (conv): Conv3d(32, 32, kernel_size=(3, 3, 3), stride=(1, 1, 1), padding=(1, 1, 1))
        )
      )
      (3): ResidualGroup3D(
        (blocks): Sequential(
          (0): ResidualChannelAttentionBlock3D(
            (conv1): ConvBlock3D(
              (conv): Conv3d(32, 32, kernel_size=(3, 3, 3), stride=(1, 1, 1), padding=(1, 1, 1))
            )
            (conv2): ConvBlock3D(
              (conv): Conv3d(32, 32, kernel_size=(3, 3, 3), stride=(1, 1, 1), padding=(1, 1, 1))
            )
            (channel_attention): ChannelAttentionBlock3D(
              (global_avg_pool): GlobalAveragePooling3D()
              (fc1): ConvBlock3D(
                (conv): Conv3d(32, 4, kernel_size=(1, 1, 1), stride=(1, 1, 1))
              )
              (fc2): ConvBlock3D(
                (conv): Conv3d(4, 32, kernel_size=(1, 1, 1), stride=(1, 1, 1))
              )
            )
          )
          (1): ResidualChannelAttentionBlock3D(
            (conv1): ConvBlock3D(
              (conv): Conv3d(32, 32, kernel_size=(3, 3, 3), stride=(1, 1, 1), padding=(1, 1, 1))
            )
            (conv2): ConvBlock3D(
              (conv): Conv3d(32, 32, kernel_size=(3, 3, 3), stride=(1, 1, 1), padding=(1, 1, 1))
            )
            (channel_attention): ChannelAttentionBlock3D(
              (global_avg_pool): GlobalAveragePooling3D()
              (fc1): ConvBlock3D(
                (conv): Conv3d(32, 4, kernel_size=(1, 1, 1), stride=(1, 1, 1))
              )
              (fc2): ConvBlock3D(
                (conv): Conv3d(4, 32, kernel_size=(1, 1, 1), stride=(1, 1, 1))
              )
            )
          )
        )
        (conv): ConvBlock3D(
          (conv): Conv3d(32, 32, kernel_size=(3, 3, 3), stride=(1, 1, 1), padding=(1, 1, 1))
        )
      )
    )
    (conv2): ConvBlock3D(
      (conv): Conv3d(32, 32, kernel_size=(3, 3, 3), stride=(1, 1, 1), padding=(1, 1, 1))
    )
    (conv3): ConvBlock3D(
      (conv): Conv3d(32, 1, kernel_size=(3, 3, 3), stride=(1, 1, 1), padding=(1, 1, 1))
    )
  )
  (deblurBlock): RCAN3D(
    (conv1): ConvBlock3D(
      (conv): Conv3d(1, 32, kernel_size=(3, 3, 3), stride=(1, 1, 1), padding=(1, 1, 1))
    )
    (residual_groups): Sequential(
      (0): ResidualGroup3D(
        (blocks): Sequential(
          (0): ResidualChannelAttentionBlock3D(
            (conv1): ConvBlock3D(
              (conv): Conv3d(32, 32, kernel_size=(3, 3, 3), stride=(1, 1, 1), padding=(1, 1, 1))
            )
            (conv2): ConvBlock3D(
              (conv): Conv3d(32, 32, kernel_size=(3, 3, 3), stride=(1, 1, 1), padding=(1, 1, 1))
            )
            (channel_attention): ChannelAttentionBlock3D(
              (global_avg_pool): GlobalAveragePooling3D()
              (fc1): ConvBlock3D(
                (conv): Conv3d(32, 4, kernel_size=(1, 1, 1), stride=(1, 1, 1))
              )
              (fc2): ConvBlock3D(
                (conv): Conv3d(4, 32, kernel_size=(1, 1, 1), stride=(1, 1, 1))
              )
            )
          )
          (1): ResidualChannelAttentionBlock3D(
            (conv1): ConvBlock3D(
              (conv): Conv3d(32, 32, kernel_size=(3, 3, 3), stride=(1, 1, 1), padding=(1, 1, 1))
            )
            (conv2): ConvBlock3D(
              (conv): Conv3d(32, 32, kernel_size=(3, 3, 3), stride=(1, 1, 1), padding=(1, 1, 1))
            )
            (channel_attention): ChannelAttentionBlock3D(
              (global_avg_pool): GlobalAveragePooling3D()
              (fc1): ConvBlock3D(
                (conv): Conv3d(32, 4, kernel_size=(1, 1, 1), stride=(1, 1, 1))
              )
              (fc2): ConvBlock3D(
                (conv): Conv3d(4, 32, kernel_size=(1, 1, 1), stride=(1, 1, 1))
              )
            )
          )
        )
        (conv): ConvBlock3D(
          (conv): Conv3d(32, 32, kernel_size=(3, 3, 3), stride=(1, 1, 1), padding=(1, 1, 1))
        )
      )
      (1): ResidualGroup3D(
        (blocks): Sequential(
          (0): ResidualChannelAttentionBlock3D(
            (conv1): ConvBlock3D(
              (conv): Conv3d(32, 32, kernel_size=(3, 3, 3), stride=(1, 1, 1), padding=(1, 1, 1))
            )
            (conv2): ConvBlock3D(
              (conv): Conv3d(32, 32, kernel_size=(3, 3, 3), stride=(1, 1, 1), padding=(1, 1, 1))
            )
            (channel_attention): ChannelAttentionBlock3D(
              (global_avg_pool): GlobalAveragePooling3D()
              (fc1): ConvBlock3D(
                (conv): Conv3d(32, 4, kernel_size=(1, 1, 1), stride=(1, 1, 1))
              )
              (fc2): ConvBlock3D(
                (conv): Conv3d(4, 32, kernel_size=(1, 1, 1), stride=(1, 1, 1))
              )
            )
          )
          (1): ResidualChannelAttentionBlock3D(
            (conv1): ConvBlock3D(
              (conv): Conv3d(32, 32, kernel_size=(3, 3, 3), stride=(1, 1, 1), padding=(1, 1, 1))
            )
            (conv2): ConvBlock3D(
              (conv): Conv3d(32, 32, kernel_size=(3, 3, 3), stride=(1, 1, 1), padding=(1, 1, 1))
            )
            (channel_attention): ChannelAttentionBlock3D(
              (global_avg_pool): GlobalAveragePooling3D()
              (fc1): ConvBlock3D(
                (conv): Conv3d(32, 4, kernel_size=(1, 1, 1), stride=(1, 1, 1))
              )
              (fc2): ConvBlock3D(
                (conv): Conv3d(4, 32, kernel_size=(1, 1, 1), stride=(1, 1, 1))
              )
            )
          )
        )
        (conv): ConvBlock3D(
          (conv): Conv3d(32, 32, kernel_size=(3, 3, 3), stride=(1, 1, 1), padding=(1, 1, 1))
        )
      )
      (2): ResidualGroup3D(
        (blocks): Sequential(
          (0): ResidualChannelAttentionBlock3D(
            (conv1): ConvBlock3D(
              (conv): Conv3d(32, 32, kernel_size=(3, 3, 3), stride=(1, 1, 1), padding=(1, 1, 1))
            )
            (conv2): ConvBlock3D(
              (conv): Conv3d(32, 32, kernel_size=(3, 3, 3), stride=(1, 1, 1), padding=(1, 1, 1))
            )
            (channel_attention): ChannelAttentionBlock3D(
              (global_avg_pool): GlobalAveragePooling3D()
              (fc1): ConvBlock3D(
                (conv): Conv3d(32, 4, kernel_size=(1, 1, 1), stride=(1, 1, 1))
              )
              (fc2): ConvBlock3D(
                (conv): Conv3d(4, 32, kernel_size=(1, 1, 1), stride=(1, 1, 1))
              )
            )
          )
          (1): ResidualChannelAttentionBlock3D(
            (conv1): ConvBlock3D(
              (conv): Conv3d(32, 32, kernel_size=(3, 3, 3), stride=(1, 1, 1), padding=(1, 1, 1))
            )
            (conv2): ConvBlock3D(
              (conv): Conv3d(32, 32, kernel_size=(3, 3, 3), stride=(1, 1, 1), padding=(1, 1, 1))
            )
            (channel_attention): ChannelAttentionBlock3D(
              (global_avg_pool): GlobalAveragePooling3D()
              (fc1): ConvBlock3D(
                (conv): Conv3d(32, 4, kernel_size=(1, 1, 1), stride=(1, 1, 1))
              )
              (fc2): ConvBlock3D(
                (conv): Conv3d(4, 32, kernel_size=(1, 1, 1), stride=(1, 1, 1))
              )
            )
          )
        )
        (conv): ConvBlock3D(
          (conv): Conv3d(32, 32, kernel_size=(3, 3, 3), stride=(1, 1, 1), padding=(1, 1, 1))
        )
      )
      (3): ResidualGroup3D(
        (blocks): Sequential(
          (0): ResidualChannelAttentionBlock3D(
            (conv1): ConvBlock3D(
              (conv): Conv3d(32, 32, kernel_size=(3, 3, 3), stride=(1, 1, 1), padding=(1, 1, 1))
            )
            (conv2): ConvBlock3D(
              (conv): Conv3d(32, 32, kernel_size=(3, 3, 3), stride=(1, 1, 1), padding=(1, 1, 1))
            )
            (channel_attention): ChannelAttentionBlock3D(
              (global_avg_pool): GlobalAveragePooling3D()
              (fc1): ConvBlock3D(
                (conv): Conv3d(32, 4, kernel_size=(1, 1, 1), stride=(1, 1, 1))
              )
              (fc2): ConvBlock3D(
                (conv): Conv3d(4, 32, kernel_size=(1, 1, 1), stride=(1, 1, 1))
              )
            )
          )
          (1): ResidualChannelAttentionBlock3D(
            (conv1): ConvBlock3D(
              (conv): Conv3d(32, 32, kernel_size=(3, 3, 3), stride=(1, 1, 1), padding=(1, 1, 1))
            )
            (conv2): ConvBlock3D(
              (conv): Conv3d(32, 32, kernel_size=(3, 3, 3), stride=(1, 1, 1), padding=(1, 1, 1))
            )
            (channel_attention): ChannelAttentionBlock3D(
              (global_avg_pool): GlobalAveragePooling3D()
              (fc1): ConvBlock3D(
                (conv): Conv3d(32, 4, kernel_size=(1, 1, 1), stride=(1, 1, 1))
              )
              (fc2): ConvBlock3D(
                (conv): Conv3d(4, 32, kernel_size=(1, 1, 1), stride=(1, 1, 1))
              )
            )
          )
        )
        (conv): ConvBlock3D(
          (conv): Conv3d(32, 32, kernel_size=(3, 3, 3), stride=(1, 1, 1), padding=(1, 1, 1))
        )
      )
    )
    (conv2): ConvBlock3D(
      (conv): Conv3d(32, 32, kernel_size=(3, 3, 3), stride=(1, 1, 1), padding=(1, 1, 1))
    )
    (conv3): ConvBlock3D(
      (conv): Conv3d(32, 1, kernel_size=(3, 3, 3), stride=(1, 1, 1), padding=(1, 1, 1))
    )
  )
)
2024-12-17 02:47:21,729 INFO: Use Exponential Moving Average with decay: 0.999
2024-12-17 02:47:21,742 INFO: Network [DoubleRCAN3D] is created.
2024-12-17 02:47:23,506 INFO: Loss [CharbonnierLoss] is created.
2024-12-17 02:47:23,506 INFO: Loss [CharbonnierLoss] is created.
2024-12-17 02:47:23,506 INFO: Multiple the learning rate for flow network with 0.25.
…
