…
2024-12-17 03:06:57,122 INFO: Training statistics:
	Number of train images: 25600
	Dataset enlarge ratio: 100
	Batch size per gpu: 1
	World size (gpu number): 1
	Require iter number per epoch: 2560000
	Total epochs: 1; iters: 200000.
2024-12-17 03:06:57,123 INFO: Dataset [PairedImage3DDataset] - SNR3 is built.
2024-12-17 03:06:57,123 INFO: Number of val images/folders in SNR3: 4
2024-12-17 03:06:57,155 INFO: Network [HD2Net] is created.
2024-12-17 03:06:57,284 INFO: Network: HD2Net, with parameters: 2,506,402
2024-12-17 03:06:57,284 INFO: HD2Net(
  (denoiseBlock): RCAN3D(
    (conv1): ConvBlock3D(
      (conv): Conv3d(1, 32, kernel_size=(3, 3, 3), stride=(1, 1, 1), padding=(1, 1, 1))
    )
    (residual_groups): Sequential(
      (0): ResidualGroup3D(
        (blocks): Sequential(
          (0): ResidualChannelAttentionBlock3D(
            (conv1): ConvBlock3D(
              (conv): Conv3d(32, 32, kernel_size=(3, 3, 3), stride=(1, 1, 1), padding=(1, 1, 1))
            )
            (conv2): ConvBlock3D(
              (conv): Conv3d(32, 32, kernel_size=(3, 3, 3), stride=(1, 1, 1), padding=(1, 1, 1))
            )
            (channel_attention): ChannelAttentionBlock3D(
              (global_avg_pool): GlobalAveragePooling3D()
              (fc1): ConvBlock3D(
                (conv): Conv3d(32, 4, kernel_size=(1, 1, 1), stride=(1, 1, 1))
              )
              (fc2): ConvBlock3D(
                (conv): Conv3d(4, 32, kernel_size=(1, 1, 1), stride=(1, 1, 1))
              )
            )
          )
          (1): ResidualChannelAttentionBlock3D(
            (conv1): ConvBlock3D(
              (conv): Conv3d(32, 32, kernel_size=(3, 3, 3), stride=(1, 1, 1), padding=(1, 1, 1))
            )
            (conv2): ConvBlock3D(
              (conv): Conv3d(32, 32, kernel_size=(3, 3, 3), stride=(1, 1, 1), padding=(1, 1, 1))
            )
            (channel_attention): ChannelAttentionBlock3D(
              (global_avg_pool): GlobalAveragePooling3D()
              (fc1): ConvBlock3D(
                (conv): Conv3d(32, 4, kernel_size=(1, 1, 1), stride=(1, 1, 1))
              )
              (fc2): ConvBlock3D(
                (conv): Conv3d(4, 32, kernel_size=(1, 1, 1), stride=(1, 1, 1))
              )
            )
          )
          (2): ResidualChannelAttentionBlock3D(
            (conv1): ConvBlock3D(
              (conv): Conv3d(32, 32, kernel_size=(3, 3, 3), stride=(1, 1, 1), padding=(1, 1, 1))
            )
            (conv2): ConvBlock3D(
              (conv): Conv3d(32, 32, kernel_size=(3, 3, 3), stride=(1, 1, 1), padding=(1, 1, 1))
            )
            (channel_attention): ChannelAttentionBlock3D(
              (global_avg_pool): GlobalAveragePooling3D()
              (fc1): ConvBlock3D(
                (conv): Conv3d(32, 4, kernel_size=(1, 1, 1), stride=(1, 1, 1))
              )
              (fc2): ConvBlock3D(
                (conv): Conv3d(4, 32, kernel_size=(1, 1, 1), stride=(1, 1, 1))
              )
            )
          )
          (3): ResidualChannelAttentionBlock3D(
            (conv1): ConvBlock3D(
              (conv): Conv3d(32, 32, kernel_size=(3, 3, 3), stride=(1, 1, 1), padding=(1, 1, 1))
            )
            (conv2): ConvBlock3D(
              (conv): Conv3d(32, 32, kernel_size=(3, 3, 3), stride=(1, 1, 1), padding=(1, 1, 1))
            )
            (channel_attention): ChannelAttentionBlock3D(
              (global_avg_pool): GlobalAveragePooling3D()
              (fc1): ConvBlock3D(
                (conv): Conv3d(32, 4, kernel_size=(1, 1, 1), stride=(1, 1, 1))
              )
              (fc2): ConvBlock3D(
                (conv): Conv3d(4, 32, kernel_size=(1, 1, 1), stride=(1, 1, 1))
              )
            )
          )
          (4): ResidualChannelAttentionBlock3D(
            (conv1): ConvBlock3D(
              (conv): Conv3d(32, 32, kernel_size=(3, 3, 3), stride=(1, 1, 1), padding=(1, 1, 1))
            )
            (conv2): ConvBlock3D(
              (conv): Conv3d(32, 32, kernel_size=(3, 3, 3), stride=(1, 1, 1), padding=(1, 1, 1))
            )
            (channel_attention): ChannelAttentionBlock3D(
              (global_avg_pool): GlobalAveragePooling3D()
              (fc1): ConvBlock3D(
                (conv): Conv3d(32, 4, kernel_size=(1, 1, 1), stride=(1, 1, 1))
              )
              (fc2): ConvBlock3D(
                (conv): Conv3d(4, 32, kernel_size=(1, 1, 1), stride=(1, 1, 1))
              )
            )
          )
        )
        (conv): ConvBlock3D(
          (conv): Conv3d(32, 32, kernel_size=(3, 3, 3), stride=(1, 1, 1), padding=(1, 1, 1))
        )
      )
      (1): ResidualGroup3D(
        (blocks): Sequential(
          (0): ResidualChannelAttentionBlock3D(
            (conv1): ConvBlock3D(
              (conv): Conv3d(32, 32, kernel_size=(3, 3, 3), stride=(1, 1, 1), padding=(1, 1, 1))
            )
            (conv2): ConvBlock3D(
              (conv): Conv3d(32, 32, kernel_size=(3, 3, 3), stride=(1, 1, 1), padding=(1, 1, 1))
            )
            (channel_attention): ChannelAttentionBlock3D(
              (global_avg_pool): GlobalAveragePooling3D()
              (fc1): ConvBlock3D(
                (conv): Conv3d(32, 4, kernel_size=(1, 1, 1), stride=(1, 1, 1))
              )
              (fc2): ConvBlock3D(
                (conv): Conv3d(4, 32, kernel_size=(1, 1, 1), stride=(1, 1, 1))
              )
            )
          )
          (1): ResidualChannelAttentionBlock3D(
            (conv1): ConvBlock3D(
              (conv): Conv3d(32, 32, kernel_size=(3, 3, 3), stride=(1, 1, 1), padding=(1, 1, 1))
            )
            (conv2): ConvBlock3D(
              (conv): Conv3d(32, 32, kernel_size=(3, 3, 3), stride=(1, 1, 1), padding=(1, 1, 1))
            )
            (channel_attention): ChannelAttentionBlock3D(
              (global_avg_pool): GlobalAveragePooling3D()
              (fc1): ConvBlock3D(
                (conv): Conv3d(32, 4, kernel_size=(1, 1, 1), stride=(1, 1, 1))
              )
              (fc2): ConvBlock3D(
                (conv): Conv3d(4, 32, kernel_size=(1, 1, 1), stride=(1, 1, 1))
              )
            )
          )
          (2): ResidualChannelAttentionBlock3D(
            (conv1): ConvBlock3D(
              (conv): Conv3d(32, 32, kernel_size=(3, 3, 3), stride=(1, 1, 1), padding=(1, 1, 1))
            )
            (conv2): ConvBlock3D(
              (conv): Conv3d(32, 32, kernel_size=(3, 3, 3), stride=(1, 1, 1), padding=(1, 1, 1))
            )
            (channel_attention): ChannelAttentionBlock3D(
              (global_avg_pool): GlobalAveragePooling3D()
              (fc1): ConvBlock3D(
                (conv): Conv3d(32, 4, kernel_size=(1, 1, 1), stride=(1, 1, 1))
              )
              (fc2): ConvBlock3D(
                (conv): Conv3d(4, 32, kernel_size=(1, 1, 1), stride=(1, 1, 1))
              )
            )
          )
          (3): ResidualChannelAttentionBlock3D(
            (conv1): ConvBlock3D(
              (conv): Conv3d(32, 32, kernel_size=(3, 3, 3), stride=(1, 1, 1), padding=(1, 1, 1))
            )
            (conv2): ConvBlock3D(
              (conv): Conv3d(32, 32, kernel_size=(3, 3, 3), stride=(1, 1, 1), padding=(1, 1, 1))
            )
            (channel_attention): ChannelAttentionBlock3D(
              (global_avg_pool): GlobalAveragePooling3D()
              (fc1): ConvBlock3D(
                (conv): Conv3d(32, 4, kernel_size=(1, 1, 1), stride=(1, 1, 1))
              )
              (fc2): ConvBlock3D(
                (conv): Conv3d(4, 32, kernel_size=(1, 1, 1), stride=(1, 1, 1))
              )
            )
          )
          (4): ResidualChannelAttentionBlock3D(
            (conv1): ConvBlock3D(
              (conv): Conv3d(32, 32, kernel_size=(3, 3, 3), stride=(1, 1, 1), padding=(1, 1, 1))
            )
            (conv2): ConvBlock3D(
              (conv): Conv3d(32, 32, kernel_size=(3, 3, 3), stride=(1, 1, 1), padding=(1, 1, 1))
            )
            (channel_attention): ChannelAttentionBlock3D(
              (global_avg_pool): GlobalAveragePooling3D()
              (fc1): ConvBlock3D(
                (conv): Conv3d(32, 4, kernel_size=(1, 1, 1), stride=(1, 1, 1))
              )
              (fc2): ConvBlock3D(
                (conv): Conv3d(4, 32, kernel_size=(1, 1, 1), stride=(1, 1, 1))
              )
            )
          )
        )
        (conv): ConvBlock3D(
          (conv): Conv3d(32, 32, kernel_size=(3, 3, 3), stride=(1, 1, 1), padding=(1, 1, 1))
        )
      )
      (2): ResidualGroup3D(
        (blocks): Sequential(
          (0): ResidualChannelAttentionBlock3D(
            (conv1): ConvBlock3D(
              (conv): Conv3d(32, 32, kernel_size=(3, 3, 3), stride=(1, 1, 1), padding=(1, 1, 1))
            )
            (conv2): ConvBlock3D(
              (conv): Conv3d(32, 32, kernel_size=(3, 3, 3), stride=(1, 1, 1), padding=(1, 1, 1))
            )
            (channel_attention): ChannelAttentionBlock3D(
              (global_avg_pool): GlobalAveragePooling3D()
              (fc1): ConvBlock3D(
                (conv): Conv3d(32, 4, kernel_size=(1, 1, 1), stride=(1, 1, 1))
              )
              (fc2): ConvBlock3D(
                (conv): Conv3d(4, 32, kernel_size=(1, 1, 1), stride=(1, 1, 1))
              )
            )
          )
          (1): ResidualChannelAttentionBlock3D(
            (conv1): ConvBlock3D(
              (conv): Conv3d(32, 32, kernel_size=(3, 3, 3), stride=(1, 1, 1), padding=(1, 1, 1))
            )
            (conv2): ConvBlock3D(
              (conv): Conv3d(32, 32, kernel_size=(3, 3, 3), stride=(1, 1, 1), padding=(1, 1, 1))
            )
            (channel_attention): ChannelAttentionBlock3D(
              (global_avg_pool): GlobalAveragePooling3D()
              (fc1): ConvBlock3D(
                (conv): Conv3d(32, 4, kernel_size=(1, 1, 1), stride=(1, 1, 1))
              )
              (fc2): ConvBlock3D(
                (conv): Conv3d(4, 32, kernel_size=(1, 1, 1), stride=(1, 1, 1))
              )
            )
          )
          (2): ResidualChannelAttentionBlock3D(
            (conv1): ConvBlock3D(
              (conv): Conv3d(32, 32, kernel_size=(3, 3, 3), stride=(1, 1, 1), padding=(1, 1, 1))
            )
            (conv2): ConvBlock3D(
              (conv): Conv3d(32, 32, kernel_size=(3, 3, 3), stride=(1, 1, 1), padding=(1, 1, 1))
            )
            (channel_attention): ChannelAttentionBlock3D(
              (global_avg_pool): GlobalAveragePooling3D()
              (fc1): ConvBlock3D(
                (conv): Conv3d(32, 4, kernel_size=(1, 1, 1), stride=(1, 1, 1))
              )
              (fc2): ConvBlock3D(
                (conv): Conv3d(4, 32, kernel_size=(1, 1, 1), stride=(1, 1, 1))
              )
            )
          )
          (3): ResidualChannelAttentionBlock3D(
            (conv1): ConvBlock3D(
              (conv): Conv3d(32, 32, kernel_size=(3, 3, 3), stride=(1, 1, 1), padding=(1, 1, 1))
            )
            (conv2): ConvBlock3D(
              (conv): Conv3d(32, 32, kernel_size=(3, 3, 3), stride=(1, 1, 1), padding=(1, 1, 1))
            )
            (channel_attention): ChannelAttentionBlock3D(
              (global_avg_pool): GlobalAveragePooling3D()
              (fc1): ConvBlock3D(
                (conv): Conv3d(32, 4, kernel_size=(1, 1, 1), stride=(1, 1, 1))
              )
              (fc2): ConvBlock3D(
                (conv): Conv3d(4, 32, kernel_size=(1, 1, 1), stride=(1, 1, 1))
              )
            )
          )
          (4): ResidualChannelAttentionBlock3D(
            (conv1): ConvBlock3D(
              (conv): Conv3d(32, 32, kernel_size=(3, 3, 3), stride=(1, 1, 1), padding=(1, 1, 1))
            )
            (conv2): ConvBlock3D(
              (conv): Conv3d(32, 32, kernel_size=(3, 3, 3), stride=(1, 1, 1), padding=(1, 1, 1))
            )
            (channel_attention): ChannelAttentionBlock3D(
              (global_avg_pool): GlobalAveragePooling3D()
              (fc1): ConvBlock3D(
                (conv): Conv3d(32, 4, kernel_size=(1, 1, 1), stride=(1, 1, 1))
              )
              (fc2): ConvBlock3D(
                (conv): Conv3d(4, 32, kernel_size=(1, 1, 1), stride=(1, 1, 1))
              )
            )
          )
        )
        (conv): ConvBlock3D(
          (conv): Conv3d(32, 32, kernel_size=(3, 3, 3), stride=(1, 1, 1), padding=(1, 1, 1))
        )
      )
    )
    (conv2): ConvBlock3D(
      (conv): Conv3d(32, 32, kernel_size=(3, 3, 3), stride=(1, 1, 1), padding=(1, 1, 1))
    )
    (conv3): ConvBlock3D(
      (conv): Conv3d(32, 1, kernel_size=(3, 3, 3), stride=(1, 1, 1), padding=(1, 1, 1))
    )
  )
  (deabeBlock): RCAN3D(
    (conv1): ConvBlock3D(
      (conv): Conv3d(1, 32, kernel_size=(3, 3, 3), stride=(1, 1, 1), padding=(1, 1, 1))
    )
    (residual_groups): Sequential(
      (0): ResidualGroup3D(
        (blocks): Sequential(
          (0): ResidualChannelAttentionBlock3D(
            (conv1): ConvBlock3D(
              (conv): Conv3d(32, 32, kernel_size=(3, 3, 3), stride=(1, 1, 1), padding=(1, 1, 1))
            )
            (conv2): ConvBlock3D(
              (conv): Conv3d(32, 32, kernel_size=(3, 3, 3), stride=(1, 1, 1), padding=(1, 1, 1))
            )
            (channel_attention): ChannelAttentionBlock3D(
              (global_avg_pool): GlobalAveragePooling3D()
              (fc1): ConvBlock3D(
                (conv): Conv3d(32, 4, kernel_size=(1, 1, 1), stride=(1, 1, 1))
              )
              (fc2): ConvBlock3D(
                (conv): Conv3d(4, 32, kernel_size=(1, 1, 1), stride=(1, 1, 1))
              )
            )
          )
          (1): ResidualChannelAttentionBlock3D(
            (conv1): ConvBlock3D(
              (conv): Conv3d(32, 32, kernel_size=(3, 3, 3), stride=(1, 1, 1), padding=(1, 1, 1))
            )
            (conv2): ConvBlock3D(
              (conv): Conv3d(32, 32, kernel_size=(3, 3, 3), stride=(1, 1, 1), padding=(1, 1, 1))
            )
            (channel_attention): ChannelAttentionBlock3D(
              (global_avg_pool): GlobalAveragePooling3D()
              (fc1): ConvBlock3D(
                (conv): Conv3d(32, 4, kernel_size=(1, 1, 1), stride=(1, 1, 1))
              )
              (fc2): ConvBlock3D(
                (conv): Conv3d(4, 32, kernel_size=(1, 1, 1), stride=(1, 1, 1))
              )
            )
          )
          (2): ResidualChannelAttentionBlock3D(
            (conv1): ConvBlock3D(
              (conv): Conv3d(32, 32, kernel_size=(3, 3, 3), stride=(1, 1, 1), padding=(1, 1, 1))
            )
            (conv2): ConvBlock3D(
              (conv): Conv3d(32, 32, kernel_size=(3, 3, 3), stride=(1, 1, 1), padding=(1, 1, 1))
            )
            (channel_attention): ChannelAttentionBlock3D(
              (global_avg_pool): GlobalAveragePooling3D()
              (fc1): ConvBlock3D(
                (conv): Conv3d(32, 4, kernel_size=(1, 1, 1), stride=(1, 1, 1))
              )
              (fc2): ConvBlock3D(
                (conv): Conv3d(4, 32, kernel_size=(1, 1, 1), stride=(1, 1, 1))
              )
            )
          )
          (3): ResidualChannelAttentionBlock3D(
            (conv1): ConvBlock3D(
              (conv): Conv3d(32, 32, kernel_size=(3, 3, 3), stride=(1, 1, 1), padding=(1, 1, 1))
            )
            (conv2): ConvBlock3D(
              (conv): Conv3d(32, 32, kernel_size=(3, 3, 3), stride=(1, 1, 1), padding=(1, 1, 1))
            )
            (channel_attention): ChannelAttentionBlock3D(
              (global_avg_pool): GlobalAveragePooling3D()
              (fc1): ConvBlock3D(
                (conv): Conv3d(32, 4, kernel_size=(1, 1, 1), stride=(1, 1, 1))
              )
              (fc2): ConvBlock3D(
                (conv): Conv3d(4, 32, kernel_size=(1, 1, 1), stride=(1, 1, 1))
              )
            )
          )
          (4): ResidualChannelAttentionBlock3D(
            (conv1): ConvBlock3D(
              (conv): Conv3d(32, 32, kernel_size=(3, 3, 3), stride=(1, 1, 1), padding=(1, 1, 1))
            )
            (conv2): ConvBlock3D(
              (conv): Conv3d(32, 32, kernel_size=(3, 3, 3), stride=(1, 1, 1), padding=(1, 1, 1))
            )
            (channel_attention): ChannelAttentionBlock3D(
              (global_avg_pool): GlobalAveragePooling3D()
              (fc1): ConvBlock3D(
                (conv): Conv3d(32, 4, kernel_size=(1, 1, 1), stride=(1, 1, 1))
              )
              (fc2): ConvBlock3D(
                (conv): Conv3d(4, 32, kernel_size=(1, 1, 1), stride=(1, 1, 1))
              )
            )
          )
        )
        (conv): ConvBlock3D(
          (conv): Conv3d(32, 32, kernel_size=(3, 3, 3), stride=(1, 1, 1), padding=(1, 1, 1))
        )
      )
      (1): ResidualGroup3D(
        (blocks): Sequential(
          (0): ResidualChannelAttentionBlock3D(
            (conv1): ConvBlock3D(
              (conv): Conv3d(32, 32, kernel_size=(3, 3, 3), stride=(1, 1, 1), padding=(1, 1, 1))
            )
            (conv2): ConvBlock3D(
              (conv): Conv3d(32, 32, kernel_size=(3, 3, 3), stride=(1, 1, 1), padding=(1, 1, 1))
            )
            (channel_attention): ChannelAttentionBlock3D(
              (global_avg_pool): GlobalAveragePooling3D()
              (fc1): ConvBlock3D(
                (conv): Conv3d(32, 4, kernel_size=(1, 1, 1), stride=(1, 1, 1))
              )
              (fc2): ConvBlock3D(
                (conv): Conv3d(4, 32, kernel_size=(1, 1, 1), stride=(1, 1, 1))
              )
            )
          )
          (1): ResidualChannelAttentionBlock3D(
            (conv1): ConvBlock3D(
              (conv): Conv3d(32, 32, kernel_size=(3, 3, 3), stride=(1, 1, 1), padding=(1, 1, 1))
            )
            (conv2): ConvBlock3D(
              (conv): Conv3d(32, 32, kernel_size=(3, 3, 3), stride=(1, 1, 1), padding=(1, 1, 1))
            )
            (channel_attention): ChannelAttentionBlock3D(
              (global_avg_pool): GlobalAveragePooling3D()
              (fc1): ConvBlock3D(
                (conv): Conv3d(32, 4, kernel_size=(1, 1, 1), stride=(1, 1, 1))
              )
              (fc2): ConvBlock3D(
                (conv): Conv3d(4, 32, kernel_size=(1, 1, 1), stride=(1, 1, 1))
              )
            )
          )
          (2): ResidualChannelAttentionBlock3D(
            (conv1): ConvBlock3D(
              (conv): Conv3d(32, 32, kernel_size=(3, 3, 3), stride=(1, 1, 1), padding=(1, 1, 1))
            )
            (conv2): ConvBlock3D(
              (conv): Conv3d(32, 32, kernel_size=(3, 3, 3), stride=(1, 1, 1), padding=(1, 1, 1))
            )
            (channel_attention): ChannelAttentionBlock3D(
              (global_avg_pool): GlobalAveragePooling3D()
              (fc1): ConvBlock3D(
                (conv): Conv3d(32, 4, kernel_size=(1, 1, 1), stride=(1, 1, 1))
              )
              (fc2): ConvBlock3D(
                (conv): Conv3d(4, 32, kernel_size=(1, 1, 1), stride=(1, 1, 1))
              )
            )
          )
          (3): ResidualChannelAttentionBlock3D(
            (conv1): ConvBlock3D(
              (conv): Conv3d(32, 32, kernel_size=(3, 3, 3), stride=(1, 1, 1), padding=(1, 1, 1))
            )
            (conv2): ConvBlock3D(
              (conv): Conv3d(32, 32, kernel_size=(3, 3, 3), stride=(1, 1, 1), padding=(1, 1, 1))
            )
            (channel_attention): ChannelAttentionBlock3D(
              (global_avg_pool): GlobalAveragePooling3D()
              (fc1): ConvBlock3D(
                (conv): Conv3d(32, 4, kernel_size=(1, 1, 1), stride=(1, 1, 1))
              )
              (fc2): ConvBlock3D(
                (conv): Conv3d(4, 32, kernel_size=(1, 1, 1), stride=(1, 1, 1))
              )
            )
          )
          (4): ResidualChannelAttentionBlock3D(
            (conv1): ConvBlock3D(
              (conv): Conv3d(32, 32, kernel_size=(3, 3, 3), stride=(1, 1, 1), padding=(1, 1, 1))
            )
            (conv2): ConvBlock3D(
              (conv): Conv3d(32, 32, kernel_size=(3, 3, 3), stride=(1, 1, 1), padding=(1, 1, 1))
            )
            (channel_attention): ChannelAttentionBlock3D(
              (global_avg_pool): GlobalAveragePooling3D()
              (fc1): ConvBlock3D(
                (conv): Conv3d(32, 4, kernel_size=(1, 1, 1), stride=(1, 1, 1))
              )
              (fc2): ConvBlock3D(
                (conv): Conv3d(4, 32, kernel_size=(1, 1, 1), stride=(1, 1, 1))
              )
            )
          )
        )
        (conv): ConvBlock3D(
          (conv): Conv3d(32, 32, kernel_size=(3, 3, 3), stride=(1, 1, 1), padding=(1, 1, 1))
        )
      )
      (2): ResidualGroup3D(
        (blocks): Sequential(
          (0): ResidualChannelAttentionBlock3D(
            (conv1): ConvBlock3D(
              (conv): Conv3d(32, 32, kernel_size=(3, 3, 3), stride=(1, 1, 1), padding=(1, 1, 1))
            )
            (conv2): ConvBlock3D(
              (conv): Conv3d(32, 32, kernel_size=(3, 3, 3), stride=(1, 1, 1), padding=(1, 1, 1))
            )
            (channel_attention): ChannelAttentionBlock3D(
              (global_avg_pool): GlobalAveragePooling3D()
              (fc1): ConvBlock3D(
                (conv): Conv3d(32, 4, kernel_size=(1, 1, 1), stride=(1, 1, 1))
              )
              (fc2): ConvBlock3D(
                (conv): Conv3d(4, 32, kernel_size=(1, 1, 1), stride=(1, 1, 1))
              )
            )
          )
          (1): ResidualChannelAttentionBlock3D(
            (conv1): ConvBlock3D(
              (conv): Conv3d(32, 32, kernel_size=(3, 3, 3), stride=(1, 1, 1), padding=(1, 1, 1))
            )
            (conv2): ConvBlock3D(
              (conv): Conv3d(32, 32, kernel_size=(3, 3, 3), stride=(1, 1, 1), padding=(1, 1, 1))
            )
            (channel_attention): ChannelAttentionBlock3D(
              (global_avg_pool): GlobalAveragePooling3D()
              (fc1): ConvBlock3D(
                (conv): Conv3d(32, 4, kernel_size=(1, 1, 1), stride=(1, 1, 1))
              )
              (fc2): ConvBlock3D(
                (conv): Conv3d(4, 32, kernel_size=(1, 1, 1), stride=(1, 1, 1))
              )
            )
          )
          (2): ResidualChannelAttentionBlock3D(
            (conv1): ConvBlock3D(
              (conv): Conv3d(32, 32, kernel_size=(3, 3, 3), stride=(1, 1, 1), padding=(1, 1, 1))
            )
            (conv2): ConvBlock3D(
              (conv): Conv3d(32, 32, kernel_size=(3, 3, 3), stride=(1, 1, 1), padding=(1, 1, 1))
            )
            (channel_attention): ChannelAttentionBlock3D(
              (global_avg_pool): GlobalAveragePooling3D()
              (fc1): ConvBlock3D(
                (conv): Conv3d(32, 4, kernel_size=(1, 1, 1), stride=(1, 1, 1))
              )
              (fc2): ConvBlock3D(
                (conv): Conv3d(4, 32, kernel_size=(1, 1, 1), stride=(1, 1, 1))
              )
            )
          )
          (3): ResidualChannelAttentionBlock3D(
            (conv1): ConvBlock3D(
              (conv): Conv3d(32, 32, kernel_size=(3, 3, 3), stride=(1, 1, 1), padding=(1, 1, 1))
            )
            (conv2): ConvBlock3D(
              (conv): Conv3d(32, 32, kernel_size=(3, 3, 3), stride=(1, 1, 1), padding=(1, 1, 1))
            )
            (channel_attention): ChannelAttentionBlock3D(
              (global_avg_pool): GlobalAveragePooling3D()
              (fc1): ConvBlock3D(
                (conv): Conv3d(32, 4, kernel_size=(1, 1, 1), stride=(1, 1, 1))
              )
              (fc2): ConvBlock3D(
                (conv): Conv3d(4, 32, kernel_size=(1, 1, 1), stride=(1, 1, 1))
              )
            )
          )
          (4): ResidualChannelAttentionBlock3D(
            (conv1): ConvBlock3D(
              (conv): Conv3d(32, 32, kernel_size=(3, 3, 3), stride=(1, 1, 1), padding=(1, 1, 1))
            )
            (conv2): ConvBlock3D(
              (conv): Conv3d(32, 32, kernel_size=(3, 3, 3), stride=(1, 1, 1), padding=(1, 1, 1))
            )
            (channel_attention): ChannelAttentionBlock3D(
              (global_avg_pool): GlobalAveragePooling3D()
              (fc1): ConvBlock3D(
                (conv): Conv3d(32, 4, kernel_size=(1, 1, 1), stride=(1, 1, 1))
              )
              (fc2): ConvBlock3D(
                (conv): Conv3d(4, 32, kernel_size=(1, 1, 1), stride=(1, 1, 1))
              )
            )
          )
        )
        (conv): ConvBlock3D(
          (conv): Conv3d(32, 32, kernel_size=(3, 3, 3), stride=(1, 1, 1), padding=(1, 1, 1))
        )
      )
      (3): ResidualGroup3D(
        (blocks): Sequential(
          (0): ResidualChannelAttentionBlock3D(
            (conv1): ConvBlock3D(
              (conv): Conv3d(32, 32, kernel_size=(3, 3, 3), stride=(1, 1, 1), padding=(1, 1, 1))
            )
            (conv2): ConvBlock3D(
              (conv): Conv3d(32, 32, kernel_size=(3, 3, 3), stride=(1, 1, 1), padding=(1, 1, 1))
            )
            (channel_attention): ChannelAttentionBlock3D(
              (global_avg_pool): GlobalAveragePooling3D()
              (fc1): ConvBlock3D(
                (conv): Conv3d(32, 4, kernel_size=(1, 1, 1), stride=(1, 1, 1))
              )
              (fc2): ConvBlock3D(
                (conv): Conv3d(4, 32, kernel_size=(1, 1, 1), stride=(1, 1, 1))
              )
            )
          )
          (1): ResidualChannelAttentionBlock3D(
            (conv1): ConvBlock3D(
              (conv): Conv3d(32, 32, kernel_size=(3, 3, 3), stride=(1, 1, 1), padding=(1, 1, 1))
            )
            (conv2): ConvBlock3D(
              (conv): Conv3d(32, 32, kernel_size=(3, 3, 3), stride=(1, 1, 1), padding=(1, 1, 1))
            )
            (channel_attention): ChannelAttentionBlock3D(
              (global_avg_pool): GlobalAveragePooling3D()
              (fc1): ConvBlock3D(
                (conv): Conv3d(32, 4, kernel_size=(1, 1, 1), stride=(1, 1, 1))
              )
              (fc2): ConvBlock3D(
                (conv): Conv3d(4, 32, kernel_size=(1, 1, 1), stride=(1, 1, 1))
              )
            )
          )
          (2): ResidualChannelAttentionBlock3D(
            (conv1): ConvBlock3D(
              (conv): Conv3d(32, 32, kernel_size=(3, 3, 3), stride=(1, 1, 1), padding=(1, 1, 1))
            )
            (conv2): ConvBlock3D(
              (conv): Conv3d(32, 32, kernel_size=(3, 3, 3), stride=(1, 1, 1), padding=(1, 1, 1))
            )
            (channel_attention): ChannelAttentionBlock3D(
              (global_avg_pool): GlobalAveragePooling3D()
              (fc1): ConvBlock3D(
                (conv): Conv3d(32, 4, kernel_size=(1, 1, 1), stride=(1, 1, 1))
              )
              (fc2): ConvBlock3D(
                (conv): Conv3d(4, 32, kernel_size=(1, 1, 1), stride=(1, 1, 1))
              )
            )
          )
          (3): ResidualChannelAttentionBlock3D(
            (conv1): ConvBlock3D(
              (conv): Conv3d(32, 32, kernel_size=(3, 3, 3), stride=(1, 1, 1), padding=(1, 1, 1))
            )
            (conv2): ConvBlock3D(
              (conv): Conv3d(32, 32, kernel_size=(3, 3, 3), stride=(1, 1, 1), padding=(1, 1, 1))
            )
            (channel_attention): ChannelAttentionBlock3D(
              (global_avg_pool): GlobalAveragePooling3D()
              (fc1): ConvBlock3D(
                (conv): Conv3d(32, 4, kernel_size=(1, 1, 1), stride=(1, 1, 1))
              )
              (fc2): ConvBlock3D(
                (conv): Conv3d(4, 32, kernel_size=(1, 1, 1), stride=(1, 1, 1))
              )
            )
          )
          (4): ResidualChannelAttentionBlock3D(
            (conv1): ConvBlock3D(
              (conv): Conv3d(32, 32, kernel_size=(3, 3, 3), stride=(1, 1, 1), padding=(1, 1, 1))
            )
            (conv2): ConvBlock3D(
              (conv): Conv3d(32, 32, kernel_size=(3, 3, 3), stride=(1, 1, 1), padding=(1, 1, 1))
            )
            (channel_attention): ChannelAttentionBlock3D(
              (global_avg_pool): GlobalAveragePooling3D()
              (fc1): ConvBlock3D(
                (conv): Conv3d(32, 4, kernel_size=(1, 1, 1), stride=(1, 1, 1))
              )
              (fc2): ConvBlock3D(
                (conv): Conv3d(4, 32, kernel_size=(1, 1, 1), stride=(1, 1, 1))
              )
            )
          )
        )
        (conv): ConvBlock3D(
          (conv): Conv3d(32, 32, kernel_size=(3, 3, 3), stride=(1, 1, 1), padding=(1, 1, 1))
        )
      )
      (4): ResidualGroup3D(
        (blocks): Sequential(
          (0): ResidualChannelAttentionBlock3D(
            (conv1): ConvBlock3D(
              (conv): Conv3d(32, 32, kernel_size=(3, 3, 3), stride=(1, 1, 1), padding=(1, 1, 1))
            )
            (conv2): ConvBlock3D(
              (conv): Conv3d(32, 32, kernel_size=(3, 3, 3), stride=(1, 1, 1), padding=(1, 1, 1))
            )
            (channel_attention): ChannelAttentionBlock3D(
              (global_avg_pool): GlobalAveragePooling3D()
              (fc1): ConvBlock3D(
                (conv): Conv3d(32, 4, kernel_size=(1, 1, 1), stride=(1, 1, 1))
              )
              (fc2): ConvBlock3D(
                (conv): Conv3d(4, 32, kernel_size=(1, 1, 1), stride=(1, 1, 1))
              )
            )
          )
          (1): ResidualChannelAttentionBlock3D(
            (conv1): ConvBlock3D(
              (conv): Conv3d(32, 32, kernel_size=(3, 3, 3), stride=(1, 1, 1), padding=(1, 1, 1))
            )
            (conv2): ConvBlock3D(
              (conv): Conv3d(32, 32, kernel_size=(3, 3, 3), stride=(1, 1, 1), padding=(1, 1, 1))
            )
            (channel_attention): ChannelAttentionBlock3D(
              (global_avg_pool): GlobalAveragePooling3D()
              (fc1): ConvBlock3D(
                (conv): Conv3d(32, 4, kernel_size=(1, 1, 1), stride=(1, 1, 1))
              )
              (fc2): ConvBlock3D(
                (conv): Conv3d(4, 32, kernel_size=(1, 1, 1), stride=(1, 1, 1))
              )
            )
          )
          (2): ResidualChannelAttentionBlock3D(
            (conv1): ConvBlock3D(
              (conv): Conv3d(32, 32, kernel_size=(3, 3, 3), stride=(1, 1, 1), padding=(1, 1, 1))
            )
            (conv2): ConvBlock3D(
              (conv): Conv3d(32, 32, kernel_size=(3, 3, 3), stride=(1, 1, 1), padding=(1, 1, 1))
            )
            (channel_attention): ChannelAttentionBlock3D(
              (global_avg_pool): GlobalAveragePooling3D()
              (fc1): ConvBlock3D(
                (conv): Conv3d(32, 4, kernel_size=(1, 1, 1), stride=(1, 1, 1))
              )
              (fc2): ConvBlock3D(
                (conv): Conv3d(4, 32, kernel_size=(1, 1, 1), stride=(1, 1, 1))
              )
            )
          )
          (3): ResidualChannelAttentionBlock3D(
            (conv1): ConvBlock3D(
              (conv): Conv3d(32, 32, kernel_size=(3, 3, 3), stride=(1, 1, 1), padding=(1, 1, 1))
            )
            (conv2): ConvBlock3D(
              (conv): Conv3d(32, 32, kernel_size=(3, 3, 3), stride=(1, 1, 1), padding=(1, 1, 1))
            )
            (channel_attention): ChannelAttentionBlock3D(
              (global_avg_pool): GlobalAveragePooling3D()
              (fc1): ConvBlock3D(
                (conv): Conv3d(32, 4, kernel_size=(1, 1, 1), stride=(1, 1, 1))
              )
              (fc2): ConvBlock3D(
                (conv): Conv3d(4, 32, kernel_size=(1, 1, 1), stride=(1, 1, 1))
              )
            )
          )
          (4): ResidualChannelAttentionBlock3D(
            (conv1): ConvBlock3D(
              (conv): Conv3d(32, 32, kernel_size=(3, 3, 3), stride=(1, 1, 1), padding=(1, 1, 1))
            )
            (conv2): ConvBlock3D(
              (conv): Conv3d(32, 32, kernel_size=(3, 3, 3), stride=(1, 1, 1), padding=(1, 1, 1))
            )
            (channel_attention): ChannelAttentionBlock3D(
              (global_avg_pool): GlobalAveragePooling3D()
              (fc1): ConvBlock3D(
                (conv): Conv3d(32, 4, kernel_size=(1, 1, 1), stride=(1, 1, 1))
              )
              (fc2): ConvBlock3D(
                (conv): Conv3d(4, 32, kernel_size=(1, 1, 1), stride=(1, 1, 1))
              )
            )
          )
        )
        (conv): ConvBlock3D(
          (conv): Conv3d(32, 32, kernel_size=(3, 3, 3), stride=(1, 1, 1), padding=(1, 1, 1))
        )
      )
    )
    (conv2): ConvBlock3D(
      (conv): Conv3d(32, 32, kernel_size=(3, 3, 3), stride=(1, 1, 1), padding=(1, 1, 1))
    )
    (conv3): ConvBlock3D(
      (conv): Conv3d(32, 1, kernel_size=(3, 3, 3), stride=(1, 1, 1), padding=(1, 1, 1))
    )
  )
)
2024-12-17 03:06:57,288 INFO: Use Exponential Moving Average with decay: 0.999
2024-12-17 03:06:57,317 INFO: Network [HD2Net] is created.
2024-12-17 03:06:57,849 INFO: Loss [CharbonnierLoss] is created.
2024-12-17 03:06:57,850 INFO: Loss [CharbonnierLoss] is created.
2024-12-17 03:06:57,850 INFO: Multiple the learning rate for flow network with 0.25.
…
